classification/models/CNN_FashionMNIST.pth (torch, 35349 bytes, 10 tensors)

block1.0.weight f4 [10, 1, 3, 3]
0.24954286 0.1263213 -0.23997973 0.26542762 -0.046695974 -0.4524604 -0.23363367 -0.42973274
-0.5451402 0.2037843 0.049493708 0.32514012 0.5424259 0.2847909 0.4018033 0.4502129
-0.13655649 0.06541056 0.07965331 0.031036025 -0.27647674 -0.2937654 -0.034678593 -0.29159087
-0.24875651 -0.06951024 -0.23686437 -0.3158496 0.10398674 0.085338674 -0.15956832 0.29231516
0.043579902 -0.27248403 -0.29523775 0.043723416 -0.28600386 -0.1713822 -0.40328342 -0.42182127
-0.51032376 -0.14673668 -0.10093122 -0.5972356 -0.24706373 0.5265915 0.58862025 0.488251
0.12102404 0.017572401 0.27589875 0.35032615 -0.20128594 -0.09863502 0.06347912 -0.08181114
0.19138281 -0.18112612 -0.10197565 -0.24547058 -0.2594475 -0.05857229 -0.2700173 0.21302551
-0.24709499 -0.31738096 0.016809763 0.09665417 0.2408229 0.25031528 0.024667054 0.3183721
0.1551016 0.027469294 0.28960928 -0.37458283 0.1732673 0.20341648 -0.587599 -0.07971872
0.21200538 0.06626741 0.30000106 0.1389168 0.37570408 -0.22526653 -0.24294917 -0.055492148
-0.03309492 0.0146564925
00000000: 2a88 7f3e 5f5a 013e 3fbd 75be 21e6 873e
00000010: 4744 3fbd e4a8 e7be aa3d 6fbe ee05 dcbe
00000020: 4f8e 0bbf d5ac 503e eab9 4a3d c478 a63e
00000030: 6cdc 0a3f 1dd0 913e 2ab9 cd3e 4e82 e63e
00000040: 77d5 0bbe f9f5 853d 4621 a33d 433f fe3c
00000050: 5c8e 8dbe 6b68 96be 240b 0ebd 664b 95be
00000060: 07ba 7ebe 625b 8ebd 938c 72be 0ab7 a1be
00000070: 00f7 d43d 0bc6 ae3d e165 23be 55aa 953e
00000080: d780 323d 0783 8bbe 6729 97be 5317 333d
00000090: 196f 92be d17e 2fbe 2a7b cebe f5f8 d7be
000000a0: 94a4 02bf 2442 16be 07b5 cebd 6fe4 18bf
000000b0: 46fe 7cbe b3ce 063f d1af 163f 09fc f93e
000000c0: 74db f73d fff3 8f3c 9a42 8d3e f35d b33e
000000d0: e71d 4ebe 2801 cabd 5701 823d 998c a7bd
000000e0: dbf9 433e 2079 39be 9cd8 d0bd a45c 7bbe
000000f0: 4dd6 84be 7fe9 6fbd b53f 8abe 5c23 5a3e
00000100: 7806 7dbe c27f a2be a1b4 893c 9ff2 c53d
00000110: 479a 763e 5329 803e 9012 ca3c ab01 a33e
00000120: f4d2 1e3e 4907 e13c ab47 943e 52c9 bfbe
00000130: fc6c 313e 694c 503e e36c 16bf 9143 a3bd
00000140: f017 593e 35b7 873d bd99 993e 3540 0e3e
00000150: 495c c03e 45ac 66be abc7 78be bc4b 63bd
00000160: 8a8e 07bd c921 703c

block1.0.bias f4 [10]
0.17965144 0.37702125 -0.026647666 0.09280769 0.387699 0.0060975114 -0.02277025 0.23396388
-0.016793983 -0.038939685
00000000: 8cf6 373e ee08 c13e 354c dabc f511 be3d
00000010: 7c80 c63e a2cd c73b ad88 babc 3a94 6f3e
00000020: 8993 89bc 387f 1fbd

block1.2.weight f4 [10, 10, 3, 3]
-0.0799504 -0.026010474 -0.11478802 -0.1533342 -0.08547327 0.017968073 -0.13145345 0.056518752
0.08846455 0.08323413 0.068510465 0.153747 0.11710286 0.07803469 0.026611242 0.096790306
0.1696642 0.12627074 0.06252146 0.030281419 0.08340431 0.073369 0.030116739 -0.08510187
0.09600037 0.07791022 -0.0087335715 0.044744696 -0.102723144 -0.07667652 0.08014828 -0.08518333
-0.044707444 0.025325516 -0.027768223 0.08257299 -0.09615884 -0.13807184 -0.13932382 -0.1283968
-0.045573484 0.016294016 -0.12525344 -0.010874061 0.011084546 0.016430808 -0.0056846365 -0.0562737
-0.0964266 0.12366502 -0.080539115 -0.08655934 -0.07553417 -0.044986602 0.01436603 -0.06788283
0.092756 0.099964425 -0.02494653 0.0522205 0.018929102 0.07420068 -0.020797597 -0.051856842
0.18646564 0.1693209 0.0057419506 -0.006142105 0.12369729 0.060169738 0.053613625 0.035418928
-0.14635523 0.021796456 -0.1092817 -0.07349714 -0.12709661 -0.0966271 -0.0974538 -0.06205357
-0.053977557 0.039352503 -0.01331925 -0.10242099 -0.008749237 0.073295094 -0.003040472 -0.124209516
0.0052562915 -0.01112146 -0.10969942 -0.094298184 -0.003148153 -0.15904382 0.011138485 0.0156025365
0.053403635 -0.013610803 0.13113667 0.09835665 0.34613582 0.17183764 0.18103841 0.4138982
0.2793669 0.14324318 0.2895299 0.09773032 -0.06396141 0.03347275 0.026220812 -0.03904674
0.0021725225 0.09742418 -0.10319856 0.07785397 -0.006005759 -0.032997817 -0.053516526 -0.0006836081
-0.044593472 0.012364337 -0.075161 0.052595656 0.07432897 -0.014751385 -0.09108613 -0.22704384
-0.26813763 -0.14206207 -0.20344688 -0.17774166 -0.1765099 -0.22305448 -0.15502186 -0.052333575
0.2596658 0.2232537 0.08991401 0.24126773 0.11959542 0.19170849 0.2837446 0.19662842
0.10303527 -0.062278133 0.014833851 0.073543824 -0.096881166 0.08184167 0.045146406 0.0069779987
-0.0007165884 0.01912475 0.19920379 0.12778376 0.008879881 0.09208812 0.13979083 -0.10208238
-0.059171293 -0.08547439 0.08790946 -0.07005503 0.06497526 -0.13876638 -0.018263653 -0.14953722
-0.029512495 0.022183958 -0.033414222 0.01765408 -0.047650397 -0.009001966 -0.08888833 -0.013175084
-0.059753805 0.028163303 0.04412711 -0.08889653 -0.061470605 0.030277075 -0.10515318 -0.023042306
0.047013566 -0.062524565 -0.059197396 -0.029727759 0.042527754 0.092032805 0.070051424 0.09340223
0.080428496 -0.020846333 -0.06924397 -0.001220536 -0.10862257 -0.022769256 -0.018887622 -0.07749639
0.044521473 -0.0368957 0.031494953 0.030350436 0.00026212068 -0.07384826 0.035671078 0.048225626
0.0038898692 0.039029572 0.021801455 0.07214704 -0.07847617 -0.008804077 0.00767588 0.025865732
-0.0785916 -0.07407983 0.087271325 -0.07530376 -0.06780422 0.07985748 0.007998346 0.0028570169
-0.033924416 -0.09280517 -0.031088702 0.065665774 -0.081764765 0.07206905 -0.022447076 -0.0751754
-0.035747517 -0.06122384 -0.08450492 -0.102246724 -0.09804186 0.0027645517 -0.03185968 -0.09616689
-0.019280666 -0.07954398 -0.0045630033 -0.09936285 0.014552218 0.062242325 -0.0329815 0.080603786
-0.023988383 -0.00019096198 0.06349062 0.061694935 -0.015777435 -0.08217043 -0.08431388 -0.058882955
00000000: 09bd a3bd eb13 d5bc fb15 ebbd a403 1dbe
00000010: 9c0c afbd c831 933c bc9b 06be 3580 673d
00000020: e72c b53d a876 aa3d 374f 8c3d db6f 1d3e
00000030: a0d3 ef3d a7d0 9f3d d2ff d93c ff39 c63d
00000040: 74bc 2d3e 1e4d 013e 400b 803d bd10 f83c
00000050: e1cf aa3d 7c42 963d 61b7 f63c e449 aebd
00000060: d89b c43d 658f 9f3d 4117 0fbc 3746 373d
00000070: 8360 d2bd 9408 9dbd c824 a43d 9974 aebd
00000080: 271f 37bd 7577 cf3c 2f7a e3bc 071c a93d
00000090: edee c4bd b462 0dbe e7aa 0ebe 737a 03be
000000a0: 43ab 3abd 077b 853c 7042 00be 1e29 32bc
000000b0: f59b 353c e799 863c 3046 babb 407f 66bd
000000c0: 4f7b c5bd 1644 fd3d b1f1 a4bd 0646 b1bd
000000d0: a9b1 9abd df43 38bd 7f5f 6b3c 2706 8bbd
000000e0: dcf6 bd3d 26ba cc3d aa5c ccbc 2ae5 553d
000000f0: 3411 9b3c 87f6 973d b95f aabc d767 54bd
00000100: d9f0 3e3e 7562 2d3e f926 bc3b b643 c9bb
00000110: 0155 fd3d 8b74 763d f699 5b3d 7013 113d
00000120: 25de 15be 7b8e b23c 15cf dfbd ab85 96bd
00000130: 9d25 02be 6ee4 c5bd dc95 c7bd e22b 7ebd
00000140: 9217 5dbd 1730 213d fc38 5abc 19c2 d1bd
00000150: f658 0fbc bd1b 963d a842 47bb 8f61 febd
00000160: f83c ac3b c936 36bc 17aa e0bd 681f c1bd
00000170: 3e51 4ebb 62dc 22be 317e 363c c8a1 7f3c
00000180: c5bd 5a3d d8ff 5ebc b148 063e 366f c93d
00000190: b738 b13e 35f6 2f3e 2262 393e 77ea d33e
000001a0: 2e09 8f3e 57ae 123e 433d 943e d626 c83d
000001b0: 33fe 82bd b91a 093d 07cd d63c 79ef 1fbd
000001c0: e160 0e3b 5486 c73d c459 d3bd e771 9f3d
000001d0: f5cb c4bb b828 07bd 2534 5bbd 2a34 33ba
000001e0: a5a7 36bd ca93 4a3c 03ee 99bd 8b6e 573d
000001f0: c939 983d cbaf 71bc 5d8b babd 2e7e 68be
00000200: 5649 89be b878 11be 6154 50be e901 36be
00000210: 03bf 34be 6568 64be 0dbe 1ebe bb5b 56bd
00000220: eaf2 843e 9e9c 643e d624 b83d e30e 773e
00000230: 72ee f43d 3b4f 443e f946 913e f658 493e
00000240: 2804 d33d 5b17 7fbd ae09 733c 259e 963d
00000250: a269 c6bd 9b9c a73d 70eb 383d b2a7 e43b
00000260: 6fd9 3bba 82ab 9c3c 14fc 4b3e bfd9 023e
00000270: ec7c 113c b298 bc3d 5425 0f3e 9110 d1bd
00000280: 995d 72bd 320d afbd e009 b43d 0379 8fbd
00000290: c011 853d c618 0ebe a89d 95bc 4920 19be
000002a0: 30c4 f1bc 22bb b53c 5add 08bd 4a9f 903c
000002b0: 102d 43bd fb7c 13bc 160b b6bd 4fdc 57bc
000002c0: 68c0 74bd bab6 e63c a1be 343d 620f b6bd
000002d0: 9ac8 7bbd a107 f83c 8d5a d7bd 38c3 bcbc
000002e0: 4c91 403d e10c 80bd f878 72bd a187 f3bc
000002f0: 9531 2e3d b27b bc3d 1f77 8f3d ab49 bf3d
00000300: b2b7 a43d eec5 aabc c8cf 8dbd 64fa 9fba
00000310: 8375 debd 9786 babc 37ba 9abc 6db6 9ebd
00000320: 265c 363d f21f 17bd da00 013d 7aa1 f83c
00000330: 3e6d 8939 c23d 97bd d61b 123d 3c88 453d
00000340: 2ded 7e3b 79dd 1f3d f798 b23c d4c1 933d
00000350: 1db8 a0bd fa3e 10bc f385 fb3b 5fe4 d33c
00000360: a2f4 a0bd 2ab7 97bd 4fbb b23d dc38 9abd
00000370: f0dc 8abd 528c a33d 7f0b 033c ca3c 3b3b
00000380: 54f4 0abd a310 bebd bcad febc c77b 863d
00000390: 4974 a7bd f098 933d eee2 b7bc 8ff5 99bd
000003a0: fd6b 12bd d9c5 7abd ea10 adbd bb66 d1bd
000003b0: 2cca c8bd 7b2d 353b 4c7f 02bd 25f3 c4bd
000003c0: 7df2 9dbc f4e7 a2bd 3f85 95bb c07e cbbd
000003d0: 6d6c 6e3c cff1 7e3d 9c17 07bd 9913 a53d
000003e0: 4983 c4bc f73c 48b9 5f07 823d d4b3 7c3d
000003f0: ae3f 81bc f848 a8bd c1ac acbd 412f 71bd

block1.2.bias f4 [10]
0.3839164 0.1678793 -0.076278284 -0.025885185 0.11757501 -0.022339327 -0.08609943 -0.04935844
-0.013347121 -0.010335076
00000000: b190 c43e 8de8 2b3e ca37 9cbd 2b0d d4bc
00000010: 2bcb f03d f700 b7bc e654 b0bd 132c 4abd
00000020: e2ad 5abc 7354 29bc

block2.0.weight f4 [10, 10, 3, 3]
0.084859125 0.0052151564 0.066727266 -0.008630964 -0.03469412 0.0078051793 0.029435197 0.06803846
-0.07109739 -0.07131281 -0.095026754 0.17862225 -0.1328934 0.016445419 0.11935888 0.1772845
0.22190946 0.18675835 0.069607496 -0.08096704 -0.08851154 -0.10749946 -0.047021385 -0.024930045
0.09899828 0.05914152 0.031801317 0.057313006 -0.0802212 0.0014876684 0.0057797413 0.098227985
-0.09363694 -0.088298604 -0.013596521 0.08460751 0.04740193 0.14261127 0.08222544 0.043305296
-0.059989087 -0.07086535 -0.103519045 -0.10529191 -0.0050088256 -0.099148825 -0.05751591 0.10343588
0.04729135 0.027318511 0.0551525 -0.059430163 -0.040818427 0.014334255 0.01675579 0.12649286
0.08224365 -0.0706296 -0.031236058 -0.014970299 0.07608266 -0.08054185 -0.06584549 0.06660826
-0.036992665 -0.018856507 -0.06417288 -0.030570386 -0.05552609 -0.12493217 -0.1069444 0.13775441
-0.031876724 -0.074983984 0.071840525 -0.061978262 0.09315721 0.08163156 0.117354624 0.091545895
-0.0698567 0.04717589 -0.030880451 0.12828235 -0.10920632 -0.008828037 -0.047151163 -0.050023258
0.053731337 0.08767842 0.002581195 -0.027531333 -0.005822426 0.04293563 -0.101343796 -0.100525625
-0.00069438276 -0.093314946 0.054977268 0.1045538 0.07157112 0.01228712 0.21253851 -0.14956348
-0.19669461 0.10488318 0.0023910268 0.08300136 0.06689656 0.014076922 -0.046223152 -0.06317522
0.08453164 -0.037881445 0.05225878 -0.07858603 0.0071807127 -0.06663397 0.092277765 -0.100151986
-0.01131007 0.007040588 -0.024252938 -0.07840498 -0.09167098 0.07521506 -0.0926015 0.02208187
0.078382686 0.019156665 0.16099864 0.11216608 0.12166967 0.23165174 0.20761044 0.04328226
-0.06812088 -0.051963273 -0.07151929 0.008863415 -0.035322536 0.024949916 0.06470387 -0.08914037
-0.08178714 0.03175328 -0.010700289 -0.04329493 0.08731643 0.1278161 0.09294446 0.003560815
0.042713083 0.100131914 0.06771043 0.07836321 0.0579737 0.059085365 -0.00041628422 0.15968528
0.12441645 -0.0322229 0.11214197 0.0036192331 -0.035182778 0.04462213 -0.07954561 -0.000987893
0.09585689 -0.082310684 0.015018026 -0.03408065 0.026197178 -0.061341718 0.0338976 0.0597855
-0.11330136 0.012251729 -0.017570542 0.00065725204 -0.018391855 0.1409088 0.0730956 0.005894245
-0.05800759 0.05467419 -0.0076604825 -0.14083101 0.05023932 0.14774506 0.23090437 0.2981146
-0.092965715 0.008918539 -0.075932994 -0.13398822 -0.22055556 -0.1874731 0.020329347 -0.053518422
0.030862082 -0.078818716 0.10511819 -0.054320354 0.06696205 0.038691968 0.07185327 -0.07711671
0.061507806 0.090213 0.07243084 0.09228644 -0.060014114 0.041385464 0.021864556 -0.08991949
-0.040164623 0.079889074 -0.050034367 0.14298743 0.21860078 0.05475298 0.011120047 0.21514031
0.1112997 -0.07375903 -0.06674241 -0.103632174 -0.037219856 0.039580494 -0.0009140952 -0.03139006
0.0340465 -0.013988018 0.06871761 0.09863385 0.0066618463 0.14805312 0.044131164 0.16989733
0.13605858 0.12282214 0.014243736 -0.025195647 0.10224069 0.1156487 0.12135731 0.041913975
-0.0104432115 -0.010255657 0.04149088 0.019180296 -0.0058351494 0.11324075 0.04121517 0.021719193
00000000: 9fca ad3d e7e3 aa3b 4ea8 883d e368 0dbc
00000010: 6c1b 0ebd 97c2 ff3b 1522 f13c c057 8b3d
00000020: 829b 91bd 730c 92bd 639d c2bd c0e8 363e
00000030: 3515 08be 8bb8 863c 6e72 f43d 118a 353e
00000040: 3c3c 633e 953d 3f3e 608e 8e3d 0cd2 a5bd
00000050: 8a45 b5bd ad28 dcbd 7f99 40bd 183a ccbc
00000060: 9cbf ca3d 613e 723d 1942 023d 0bc1 6a3d
00000070: 034b a4bd defd c23a fc63 bd3b c12b c93d
00000080: b9c4 bfbd e6d5 b4bd f1c3 5ebc b446 ad3d
00000090: 8728 423d b008 123e d065 a83d e560 313d
000000a0: 1eb7 75bd da21 91bd cb01 d4bd 49a3 d7bd
000000b0: 1321 a4bb 8a0e cbbd ce95 6bbd 31d6 d33d
000000c0: 93b4 413d 12cb df3c 96e7 613d 0b6d 73bd
000000d0: 3931 27bd 39da 6a3c 7043 893c 5887 013e
000000e0: 5c6f a83d 40a6 90bd c3e2 ffbc fc45 75bc
000000f0: 3ad1 9b3d 20f3 a4bd 00da 86bd e969 883d
00000100: 9f85 17bd f678 9abc 126d 83bd bf6e fabc
00000110: 536f 63bd 70dc ffbd aa05 dbbd 7e0f 0d3e
00000120: 2b91 02bd 3491 99bd 2021 933d ebdc 7dbd
00000130: 35c9 be3d 732e a73d 9f57 f03d 6a7c bb3d
00000140: 0811 8fbd 823b 413d 00f9 fcbc 735c 033e
00000150: 90a7 dfbd 79a3 10bc 9421 41bd 30e5 4cbd
00000160: 6415 5c3d be90 b33d 4429 293b 6489 e1bc
00000170: 0dca bebb 45dd 2f3d 568d cfbd 61e0 cdbd
00000180: 3d07 36ba e81b bfbd d82f 613d 4d20 d63d
00000190: e193 923d eb4f 493c b2a3 593e 2b27 19be
000001a0: 506a 49be fecc d63d c6b2 1c3b 9efc a93d
000001b0: 1001 893d e4a2 663c 7d54 3dbd 0262 81bd
000001c0: ed1e ad3d 9329 1bbd 4d0d 563d b6f1 a0bd
000001d0: 2f4c eb3b 6477 88bd 20fc bc3d 7c1c cdbd
000001e0: df4d 39bc bcb4 e63b 19ae c6bc ca92 a0bd
000001f0: ffbd bbbd 5a0a 9a3d dba5 bdbd 0ae5 b43c
00000200: 1a87 a03d 70ee 9c3c d4dc 243e 54b7 e53d
00000210: f32d f93d 1d36 6d3e d597 543e bd48 313d
00000220: f682 8bbd 71d7 54bd b578 92bd db37 113c
00000230: 5dae 10bd c463 cc3c 7683 843d 3a8f b6bd
00000240: 0480 a7bd ba0f 023d 4450 2fbc 0656 31bd
00000250: f5d2 b23d 39e2 023e aa59 be3d 905c 693b
00000260: eaf3 2e3d f611 cd3d c4ab 8a3d e47c a03d
00000270: d575 6d3d 7f03 723d b940 dab9 8a84 233e
00000280: 0dce fe3d 29fc 03bd b0aa e53d a830 6d3b
00000290: d11b 10bd b2c5 363d cfe8 a2bd 307c 81ba
000002a0: 9e50 c43d 8192 a8bd 2b0e 763c 2798 0bbd
000002b0: 779b d63c 7441 7bbd 36d8 0a3d a4e1 743d
000002c0: 8b0a e8bd 7abb 483c 19f0 8fbc 704b 2c3a
000002d0: 84aa 96bc 654a 103e 25b3 953d 8324 c13b
000002e0: 5e99 6dbd 0bf2 5f3d c904 fbbb 0136 10be
000002f0: bfc7 4d3d 7b4a 173e 3272 6c3e 7aa2 983e
00000300: cf64 bebd 101f 123c c282 9bbd 3534 09be
00000310: 51d9 61be f3f8 3fbe bb89 a63c 2236 5bbd
00000320: 7ad2 fc3c b56b a1bd 3548 d73d 057f 5ebd
00000330: 6623 893d 787b 1e3d cf27 933d 5eef 9dbd
00000340: 9cef 7b3d 98c1 b83d 9f56 943d ac00 bd3d
00000350: 5cd1 75bd ce83 293d 4c1d b33c b627 b8bd
00000360: a983 24bd e29c a33d d6f0 4cbd 4c6b 123e
00000370: e2d8 5f3e a944 603d dc30 363c be4d 5c3e
00000380: 19f1 e33d f90e 97bd 3fb0 88bd 1b3d d4bd
00000390: d973 18bd 281f 223d e49f 6fba dd92 00bd
000003a0: 5874 0b3d 002e 65bc d1bb 8c3d 8b00 ca3d
000003b0: 9e4b da3b 3d9b 173e e1c2 343d 91f9 2d3e
000003c0: f152 0b3e 2d8a fb3d 8f5e 693c 1a67 cebc
000003d0: 9163 d13d 3ad9 ec3d 2e8a f83d fdad 2b3d
000003e0: 011a 2bbc 5807 28bc 57f2 293d ff1f 9d3c
000003f0: c834 bfbb c4ea e73d 3dd1 283d 73ec b13c

block2.0.bias f4 [10]
-0.007818504 0.058125883 0.11370764 0.18521094 0.012213743 0.37134656 0.06944092 0.039264582
0.16560766 -0.006468688
00000000: 2f19 00bc 6815 6e3d 8ddf e83d f0a7 3d3e
00000010: 271c 483c 2321 be3e 0b37 8e3d e6d3 203d
00000020: 0e95 293e 4af7 d3bb

block2.2.weight f4 [10, 10, 3, 3]
0.01070532 -0.12511402 -0.24377553 0.013466201 0.06158081 -0.03798822 0.058750078 0.04625926
0.049785953 -0.05110968 0.084944814 0.124826886 -0.036581602 0.15386605 0.096619904 0.073084004
0.17258908 0.08074523 -0.028131071 0.13288102 -0.02258953 0.046510514 0.13430384 0.16387759
-0.11844335 0.03562409 -0.08437124 -0.011099384 0.006321097 0.14984168 -0.045846794 -0.21556117
0.010573126 0.066300064 -0.10787671 -0.1670181 0.07605674 -0.005188926 -0.13308951 0.083731614
0.021402525 -0.08290958 -0.037210483 -0.10572443 0.012379491 0.11430474 -0.022681346 0.01451485
-0.13572524 -0.32814044 -0.26992378 -0.07379375 -0.29414502 -0.1315343 0.022451933 0.0021133127
0.033112846 0.03531721 0.12995143 0.16492593 0.08573692 -0.04307017 0.011479441 -0.01316781
0.08526765 0.05521435 0.04252126 0.12736143 0.12602443 0.12684964 0.0682689 0.27396393
-0.13423812 0.027361656 0.15496004 0.05594743 0.13726522 0.070396535 -0.023085332 0.06367966
-0.056855176 -0.008272561 0.0323446 0.07410053 0.0003540656 0.06871124 0.0127785 -0.020915246
-0.04798575 -0.12457672 0.021863302 -0.0737577 0.11552662 -0.004578114 0.009395918 0.052508716
-0.08189878 -0.07786805 0.04208401 -0.047442224 0.09971803 -0.08130082 -0.09031467 0.06310109
-0.11348482 -0.042656418 0.018536601 -0.15272892 -0.11281481 -0.1419057 -0.05597264 -0.016214194
-0.10642272 -0.098075606 -0.01818264 -0.033705007 -0.17025256 0.14928348 -0.020798545 -0.06977116
0.12727033 0.0061177183 -0.03560849 -0.052532088 0.16309652 0.14964168 -0.026689894 -0.04985431
0.1166876 0.017888086 -0.087474 0.1011607 0.10466375 -0.019746874 0.06956903 0.14328127
-0.09259474 -0.12860817 0.09527234 0.054822795 -0.06940506 0.104157805 0.15937361 0.1588979
-0.14093716 -0.020410452 -0.055218533 0.005538058 0.03942682 0.016457448 -0.111813955 -0.069277234
-0.1646562 -0.071802735 -0.15326463 -0.12316896 -0.033405643 -0.025927812 -0.1421848 0.05205078
-0.08108098 -0.1767657 0.006721 0.00018692532 -0.13086328 0.12002244 0.08861204 -0.0059875534
0.050362684 0.028450375 0.07111808 -0.07560671 0.008745335 0.07282263 0.036905684 -0.017126627
-0.12822409 -0.072070055 -0.023726536 0.05403147 0.08784165 0.09574947 0.03408842 0.12774698
0.09710086 -0.010391205 0.05682101 -0.17511882 -0.12167594 -0.06793448 -0.146655 -0.047733176
-0.14105079 -0.10610678 -3.0008614e-05 0.028121376 0.1275458 -0.06444093 -0.0863547 -0.07544267
-0.12461502 -0.22237183 -0.1204902 -0.04667886 -0.004354782 0.045865696 0.1859324 -0.2779285
-0.15028444 0.11083474 -0.04143566 0.027658677 0.20017526 0.11582503 0.118310325 -0.0024725122
0.05421651 0.09553531 -0.042085823 0.045530777 -0.02888194 0.05485404 -0.050615627 0.024013123
-0.059280314 -0.14336155 0.10208579 0.081292495 0.1313015 0.025728649 0.1578417 0.25033197
0.056946773 0.022217723 0.019167306 -0.20297764 -0.14273939 -0.03177372 -0.1696195 0.047707904
-0.085847 -0.118686184 0.09775782 0.1333904 -0.0458743 -0.09988753 -0.13419229 0.052588783
-0.08544724 -0.17711543 -0.18263416 -0.1652564 -0.039107896 -0.17063895 0.045287617 -0.074562505
00000000: 5e65 2f3c e41d 00be 4ba0 79be 57a1 5c3c
00000010: 293c 7c3d 8999 1bbd eca3 703d 5a7a 3d3d
00000020: 5bec 4b3d 6258 51bd 8cf7 ad3d 3da5 ff3d
00000030: 97d6 15bd 108f 1d3e a8e0 c53d 11ad 953d
00000040: 31bb 303e c15d a53d 2273 e6bc f611 083e
00000050: ae0d b9bc cf81 3e3d f286 093e 87cf 273e
00000060: 6d92 f2bd 91ea 113d d4ca acbd 31da 35bc
00000070: 3421 cf3b 1970 193e d9c9 3bbd 11bc 5cbe
00000080: e83a 2d3c 54c8 873d 77ee dcbd cb06 2bbe
00000090: a3c3 9b3d de07 aabb 9e48 08be 7b7b ab3d
000000a0: 5954 af3c 7fcc a9bd 056a 18bd 0d86 d8bd
000000b0: 59d3 4a3c 9b18 ea3d 3bce b9bc b2cf 6d3c
000000c0: 8ffb 0abe 0602 a8be 7333 8abe 2d21 97bd
000000d0: 2d9a 96be edb0 06be 1eed b73c 817f 0a3b
000000e0: 56a1 073d c7a8 103d fd11 053e 58e2 283e
000000f0: d796 af3d 596a 30bd 4414 3c3c ccbd 57bc
00000100: cea0 ae3d 7128 623d c62a 2e3d 096b 023e
00000110: 8c0c 013e dfe4 013e 91d0 8b3d 0045 8c3e
00000120: b875 09be 8d25 e03c d8ad 1e3e 2229 653d
00000130: 418f 0c3e 0f2c 903d 731d bdbc 7b6a 823d
00000140: f9e0 68bd a389 07bc c57b 043d 05c2 973d
00000150: e1a1 b939 7bb8 8c3d ea5c 513c 7356 abbc
00000160: b58c 44bd 1422 ffbd ab1a b33c 470e 97bd
00000170: 3899 ec3d 0104 96bb 56f1 193c 6113 573d
00000180: 8cba a7bd 4979 9fbd 4860 2c3d c752 42bd
00000190: f738 cc3d 0b81 a6bd e6f6 b8bd 253b 813d
000001a0: bb6a e8bd 7fb8 2ebd 12da 973c f864 1cbe
000001b0: 730b e7bd ba4f 11be 9143 65bd a1d3 84bc
000001c0: 28f4 d9bd dddb c8bd c3f3 94bc 430e 0abd
000001d0: b056 2ebe c5dd 183e b661 aabc 2fe4 8ebd
000001e0: 2753 023e 2477 c83b 35da 11bd e32b 57bd
000001f0: c602 273e ab3b 193e c4a4 dabc 0834 4cbd
00000200: e9f9 ee3d 098a 923c 9225 b3bd 572d cf3d
00000210: f359 d63d 32c4 a1bc 357a 8e3d 53b8 123e
00000220: 50a2 bdbd dcb1 03be 251e c33d de8d 603d
00000230: 3d24 8ebd b050 d53d d632 233e 22b6 223e
00000240: d551 10be d233 a7bc d42c 62bd 9978 b53b
00000250: 047e 213d c5d1 863c b7fe e4bd 39e1 8dbd
00000260: a39b 28be 500d 93bd 67f1 1cbe 0240 fcbd
00000270: 5bd4 08bd 9066 d4bc e498 11be 3333 553d
00000280: c90d a6bd 1102 35be d63b dc3b 6201 4439
00000290: 0601 06be 53ce f53d 3b7a b53d 3d33 c4bb
000002a0: 1a49 4e3d c310 e93c 5ba6 913d b1d7 9abd
000002b0: 9848 0f3c 0824 953d 6a2a 173d 244d 8cbc
000002c0: 2d4d 03be 7799 93bd 275e c2bc 1a50 5d3d
000002d0: 53e6 b33d 4c18 c43d 4da0 0b3d 1bd0 023e
000002e0: d1dc c63d df3f 2abc 26bd 683d 5952 33be
000002f0: 3c31 f9bd 3c21 8bbd ba2c 16be dd83 43bd
00000300: 9e6f 10be 834e d9bd 02bb fbb7 cd5e e63c
00000310: 5e9b 023e 9bf9 83bd bcda b0bd b081 9abd
00000320: 2936 ffbd 71b5 63be 91c3 f6bd 5532 3fbd
00000330: 8fb2 8ebb abdd 3b3d 1065 3e3e a54c 8ebe
00000340: 2ae4 19be 53fd e23d 70b8 29bd 7394 e23c
00000350: befa 4c3e ac35 ed3d af4c f23d df09 22bb
00000360: 2212 5e3d 04a8 c33d 2f62 2cbd 7b7e 3a3d
00000370: d199 ecbc a1ae 603d 5552 4fbd 2bb7 c43c
00000380: eacf 72bd 5fcd 12be 5b12 d13d ae7c a63d
00000390: e773 063e e3c4 d23c 41a1 213e 832b 803e
000003a0: 0541 693d f101 b63c c104 9d3c 5fd9 4fbe
000003b0: 462a 12be 2925 02bd bcb0 2dbe 5d69 433d
000003c0: 8dd0 afbd be11 f3bd 4035 c83d 7e97 083e
000003d0: b1e6 3bbd d591 ccbd b469 09be 5667 573d
000003e0: f6fe aebd bf5d 35be 7304 3bbe f938 29be
000003f0: 9a2f 20bd fabb 2ebe 827f 393d 3ab4 98bd

block2.2.bias f4 [10]
0.047498696 -0.08195474 0.16581872 -0.037460398 0.10049806 -0.10702242 0.08568768 0.008845475
0.18929158 -0.0039294646
00000000: fe8d 423d e3d7 a7bd 62cc 293e 1370 19bd
00000010: edd1 cd3d 922e dbbd 067d af3d 9cec 103c
00000020: a7d5 413e bdc2 80bb

classifier.1.weight f4 [10, 490]
-0.04109967 -0.049522296 0.022690048 0.045074668 0.0384315 -0.13784069 -0.0651048 -0.0717562
-0.068118736 -0.042734448 0.09418386 -0.021082345 -0.08019957 -0.00838134 0.004358916 0.0059493575
-0.022780802 0.051910304 0.0048058014 -0.0133580025 0.13924462 0.08567432 0.07490404 -0.05957589
0.056587994 0.03570154 0.037457447 0.07173018 0.07024973 0.061702054 -0.062533036 0.019935174
-0.046940867 0.036349244 0.07352666 -0.001091578 0.020999592 -0.049398907 -0.0112598855 -0.062439363
0.06537046 0.017743386 0.05078434 -0.019997176 0.032212332 -0.031942286 -0.040874854 0.10401662
0.015168368 -0.045162484 -0.047003247 0.0012804448 -0.051067673 -0.011330992 0.03125167 -0.017406518
0.028653791 0.056669977 -0.04255091 -0.047638074 0.0057177967 0.0011398225 0.05011906 0.06142809
0.051911984 0.05030934 -0.06920733 -0.060195208 -0.010378236 -0.0019369264 0.028629636 0.006357193
-0.0009973523 0.018210035 -0.017256742 -0.06936013 -0.045963474 -0.010989389 -0.011078916 0.051005423
0.05371743 0.029928023 -0.017936919 0.0055061947 -0.007914621 0.0020366267 0.0695045 0.03244114
0.050865714 0.009197455 -0.02617701 0.030430889 0.0077489167 0.13421708 0.05135045 0.03471039
0.04420313 0.0138357645 -0.06226504 -0.0010853965 -0.013534009 0.013534634 0.009972288 0.05519235
0.02121841 0.017793184 -0.006338621 0.06871909 -0.0188222 0.063993946 0.053102393 0.017786397
0.12586975 0.04774658 -0.006136599 0.01649863 0.097867794 0.058380246 0.027857356 0.01291074
-0.004530255 -0.049035415 -0.044828355 -0.007280138 -0.10353122 -0.06942359 -0.024444707 -0.067305095
0.00014903987 0.037140436 0.003583203 -0.08388458 -0.020308228 -0.0014190555 -0.057604745 -0.01749849
0.06748013 0.09227381 -0.01626478 -0.02282265 -0.076245196 -0.0004883982 -0.017881066 -0.044090524
0.063769065 0.03337224 -0.06000597 0.016351959 0.030332739 -0.032173052 -0.016903283 0.054821193
0.02701147 0.028396785 -0.0013017853 -0.018286807 -0.06840541 -0.05658347 0.00040314035 0.051550712
-0.006569617 0.032916497 0.004672709 -0.05309485 0.021653008 -0.021553466 0.019547313 0.025280222
0.034944016 0.028379573 -0.054203674 -0.002820402 0.0039002271 0.022356397 0.022380957 -0.008240002
-0.012097619 -0.027432904 -0.051101293 -0.024554893 0.0010551083 -0.020156298 0.072850816 -0.018531142
-0.0437554 -0.023010816 -0.025726365 0.05331214 -0.015364221 -0.047586575 -0.014509793 0.014338757
-0.04163803 0.014555964 0.00063861563 0.028014192 0.022231821 -0.03193215 -0.00096084835 0.05998658
0.021970505 -0.062152416 0.011011261 -0.039735127 -0.008380506 0.07034 0.08924792 0.056417704
0.0079689 0.01039992 0.020664033 0.08239132 -0.0059640314 0.013504094 0.046604235 0.09742079
-0.023051484 0.035408534 0.010669614 0.016146885 -0.0069559906 -0.031424344 0.038225453 -0.052127168
0.0129711265 0.013690245 0.038161524 -0.030481618 -0.0676701 -0.03438399 -0.03268144 -0.019724147
-0.005536127 -0.010805431 -0.056945413 -0.03110731 -0.010766034 -0.015570988 -0.0011406875 0.08905425
-0.03555281 -0.08458522 -0.0425752 -0.09753126 -0.037540145 -0.025984874 0.0014445698 -0.012090219
0.03931288 0.05133738 0.03370813 -0.00325436 -0.01043346 -0.011824697 0.034659624 0.008065384
00000000: 2158 28bd e4d7 4abd 7be0 b93c 37a0 383d
00000010: 596a 1d3d 1c26 0dbe aa55 85bd eaf4 92bd
00000020: d681 8bbd 510a 2fbd 78e3 c03d e2b4 acbc
00000030: ac3f a4bd e351 09bc 3dd5 8e3b d4f2 c23b
00000040: ce9e babc e69f 543d fc79 9d3b 86db 5abc
00000050: 2496 0e3e 0576 af3d 4a67 993d d905 74bd
00000060: d0c8 673d c73b 123d fb6c 193d 46e7 923d
00000070: 17df 8f3d 4bbb 7c3d 5211 80bd 174f a33c
00000080: 1145 40bd f2e2 143d 2595 963d 4813 8fba
00000090: 5607 ac3c 8256 4abd 627b 38bc 6bc0 7fbd
000000a0: f3e0 853d 945a 913c 3d03 503d 1ed1 a3bc
000000b0: 14f1 033d ead5 02bd 646c 27bd aa06 d53d
000000c0: bf84 783c 4cfc 38bd 7a86 40bd 99d4 a73a
000000d0: 562c 51bd a0a5 39bc c001 003d 1d98 8ebc
000000e0: 5bbb ea3c c71e 683d dd49 2ebd 2420 43bd
000000f0: 5b5c bb3b 1966 953a a549 4d3d 059c 7b3d
00000100: a9a1 543d 2b11 4e3d 93bc 8dbd 408f 76bd
00000110: 7a09 2abc 77e0 fdba b388 ea3c 0050 d03b
00000120: 97b9 82ba 362d 953c 035e 8dbc af0c 8ebd
00000130: 3244 3cbd d70c 34bc 5784 35bc 10eb 503d
00000140: cf06 5c3d 9d2b f53c 72f0 92bc 4f6d b43b
00000150: 54ac 01bc ed78 053b 6058 8e3d 00e1 043d
00000160: 9158 503d ecb0 163c 2b71 d6bc 334a f93c
00000170: a0ea fd3b 3470 093e d954 523d 7b2c 0e3d
00000180: 570e 353d 67af 623c a009 7fbd dd43 8eba
00000190: c0bd 5dbc 5fc0 5d3c cf62 233c 6011 623d
000001a0: 3bd2 ad3c 03c3 913c 35b4 cfbb 98bc 8c3d
000001b0: 0431 9abc 420f 833d e581 593d c7b4 913c
000001c0: 00e4 003e eb91 433d 8615 c9bb 2328 873c
000001d0: e96e c83d 2020 6f3d 1c35 e43c 9287 533c
000001e0: 8972 94bb 5cd9 48bd f09d 37bd 398e eebb
000001f0: 2d08 d4bd f52d 8ebd 4440 c8bc 41d7 89bd
00000200: 9647 1c39 9220 183d 2cd4 6a3b aecb abbd
00000210: 715d a6bc 9aff b9ba f4f2 6bbd fe58 8fbc
00000220: 0633 8a3d 0dfa bc3d b73d 85bc 91f6 babc
00000230: 7126 9cbd d907 00ba 507b 92bc 4498 34bd
00000240: 5b99 823d 54b1 083d d2c8 75bd 8bf4 853c
00000250: 5d7c f83c e4c7 03bd c178 8abc 308c 603d
00000260: 2947 dd3c 60a0 e83c aba0 aaba 37ce 95bc
00000270: 2318 8cbd 12c4 67bd 955c d339 d726 533d
00000280: f145 d7bb 73d3 063d 861d 993b fc79 59bd
00000290: a661 b13c e590 b0bc b021 a03c 7818 cf3c
000002a0: 7521 0f3d 477c e83c ac04 5ebd 7ed6 38bb
000002b0: f49a 7f3b c324 b73c 4558 b73c 1301 07bc
000002c0: 1735 46bc f8ba e0bc 974f 51bd 5827 c9bc
000002d0: 8f4b 8a3a d21e a5bc cf32 953d 9fce 97bc
000002e0: dd38 33bd 2e81 bcbc 19c0 d2bc d55d 5a3d
000002f0: 37ba 7bbc 24ea 42bd 7cba 6dbc 1bed 6a3c
00000300: a48c 2abd 237c 6e3c c568 273a 057e e53c
00000310: 821f b63c 49cb 02bd 71e1 7bba 7db4 753d
00000320: 7dfb b33c 8893 7ebd 9368 343c 4dc1 22bd
00000330: 644e 09bc 6b0e 903d 9dc7 b63d 4016 673d
00000340: fd8f 023c 6d64 2a3c 9e47 a93c c8bc a83d
00000350: ec6d c3bb 4740 5d3c 15e4 3e3d 8d84 c73d
00000360: 77d6 bcbc 8a08 113d 9bcf 2e3c 7946 843c
00000370: 14ef e3bb d0b6 00bd 4b92 1c3d 4c83 55bd
00000380: d984 543c 0d4d 603c 424f 1c3d 96b4 f9bc
00000390: 9f96 8abd 3ad6 0cbd f9dc 05bd 8994 a1bc
000003a0: 6668 b5bb 4309 31bc 983f 69bd c2d4 febc
000003b0: 0564 30bc 751d 7fbc 1f83 95ba 1362 b63d
000003c0: d39f 11bd 043b adbd 5563 2ebd 78be c7bd
000003d0: b2c3 19bd 3bde d4bc b857 bd3a 0e16 46bc
000003e0: 8b06 213d 2547 523d 8911 0a3d 1a47 55bb
000003f0: 1af1 2abc 60bc 41bc 40f7 0d3d ac24 043c

classifier.1.bias f4 [10]
-0.021676393 -0.0033653413 0.021788372 -0.04737197 -0.101389684 -0.010430708 0.090983845 -0.022496963
-0.043899633 -0.049899247
00000000: b192 b1bc 0f8d 5cbb 877d b23c 1c09 42bd
00000010: 65a5 cfbd 8fe5 2abc bd55 ba3d 8d4b b8bc
00000020: 1ad0 33bd 2763 4cbd
