classification/models/fashion_MNIST_scratch.pth (torch, 33301 bytes, 2 tensors)

W f4 [784, 10]
00000000: b1dc 5abb 46f8 6abc 7978 2b3b 6182 b03c
00000010: 8a8d 1c3d f3d3 8f3d 007d 51bc c25a 6a3d
00000020: 48fb d4bd 2f83 7f3b bb62 40bc aa5e 673c
00000030: cdc2 c0bc 7d69 a33c b17d 083d babd 603d
00000040: 98d4 4dbb bd5f 213d bda7 d1bd 5aba 2e3a
00000050: 94a8 073a 4400 a0bb bc4a b4bb 5d01 263c
00000060: c526 c23c 7d51 3a3d 7fe6 133b 1395 4c3d
00000070: 1695 e2bd 890e d13c 586e 7cbc da44 483a
00000080: a822 29bc b46c 053c 327a 3c3c 3085 7a3d
00000090: 7a22 51bc 26e2 4d3d b6ea dcbd 9cb8 943c
000000a0: 2d8e dfbc a81a 0e3c 91b1 e5bc 80b7 cc39
000000b0: e1c2 d73c f5b6 823d 7a32 f83b 25ed 2b3d
000000c0: 078a dabd a402 303c 21f6 49bd 737c 113d
000000d0: 8915 6fbd c1b9 373d d99e bd3c 1d61 2c3d
000000e0: 9c81 c3bb 38f2 113d 7fb6 ccbd 7eb0 5f3b
000000f0: 0127 85bd c5b3 883d 5282 d0bd 853a 913d
00000100: 3b38 8a3b afb6 3e3d b1b9 1fbd 5354 b53c
00000110: faec 43bd 8692 d4bb 4bac fabc 9ae0 f53d
00000120: 3088 51bd b8ff 143d db27 38bc 402b 173d
00000130: e600 8cbd 4d3f 563d e712 86bd b161 cb3b
00000140: 02f2 5f3b b269 283e 3157 b3bc 95f9 36bd
00000150: ad95 80bd 0a86 bc3c adf4 873c f3be de3c
00000160: bdf6 c9bd 783e 123c 1589 583b 73a4 073e
00000170: 4145 3cbd a8db edbc 3dcd 08be 7508 3e3b
00000180: 241b 033e e77c 1e3d 2d34 00be 2be5 9237
00000190: c3b1 8ebd e2ee 5d3e 48d3 e33d b4c7 ba3d
000001a0: 824d 6bbe df9b 4ebb 26b5 a63c 669d c33c
000001b0: f523 3dbe ab62 06bd aaf4 ae3d 0e93 4b3e
000001c0: d6fb 153e 1547 e83d cadb 82bd 1fa3 5bbd
000001d0: ceb3 8cbe 020e 2b3c f767 42be 1723 14bc
000001e0: 3c0b 52bd 5159 e23d bf40 24be 3e12 323d
000001f0: 0be7 023e ce2c 73bd 0bba 023e 2f87 d23a
00000200: 0b4c 12be 00ef 123b cbb9 41be e9c8 373e
00000210: 2f3a 1bbd 978e 1fbe 1b82 773e 3005 bcbd
00000220: 72a6 8bbd 46c2 4cbc e37c a63d f9f1 2fbc
00000230: 9ad3 1ebe a5a1 443e 820c abbb bb8a 57be
00000240: 05a7 573e d3ff debd 0ecd 15be 027e 12bc
00000250: dd78 653e 6db2 843c d125 1abe 323a f83d
00000260: 951d 10be 0d31 763b b20e 2e3e 4e5e e8bd
00000270: cd81 883d d3c0 61bc d9f8 333d 95c1 cd3c
00000280: 38b7 d43d 4b65 183e 0884 483d 286f 173e
00000290: 13f0 273c 8377 a9bd 1ee8 4bbe 060f 4cbc
000002a0: 3203 0ebe 791a 203d a96d 973d 027c 373e
000002b0: 7524 383e 65e0 473e 01df 24be cd60 e0bc
000002c0: bc2a 84be 1d82 2dbb 52b4 23be 1b67 383d
000002d0: 7b57 263d 894a 283e 0053 34bb 10ac 0bbd
000002e0: 9f65 34be ac2c a23b d4fb 863d 5bef 4cbc
000002f0: 2f82 25be d59b a83c 0299 1a3d 307c 523e
00000300: 161c 12bd 914e e7bd a4f1 b3bd f816 9e3d
00000310: 1146 0d3c 9b24 e83c f9b7 00be c363 173d
00000320: 8378 d13c 1d02 303e 6eec 9ebd b023 23bd
00000330: 547e 67bd e9a7 6f3d d7af cbbd d1fb 813c
00000340: 4137 a7bd a175 5e3d f594 4dbd 6bc6 b43d
00000350: 76fd cdbd 4f30 ed3c 4e17 6ebc 1bc1 733d
00000360: fe62 85bd 14bf 1b3d dd84 78bd 97fe 283d
00000370: cdc2 4ebd 4cbc 0d3d 4afd 8dbd 6b86 1a3d
00000380: 21f9 143c 6ec5 923d b8b1 fabc fbb3 563d
00000390: 6baf 3cbd 36d6 1e3d 1c97 f5bc 9ce0 78bc
000003a0: d063 4ebd 903a fd3c fe11 ab3c 7a6f 653d
000003b0: d780 1d3c 470e c33c 4715 7ebd 21b2 0e3d
000003c0: 7f82 543a 2132 1abc fece 74bc 9ebb a63b
000003d0: 1b41 d23c 8e5d a43d 4c51 dbba 82d7 173d
000003e0: 0ff6 a9bd 9b64 a33c 67c7 e8bb 6ea3 783b
000003f0: 891d dbbc 323d cb3c a3b3 c03b 2105 953d
-0.0033395702 -0.01434142 0.0026164337 0.021546545 0.03822092 0.07022848 -0.01278615 0.05721546
-0.103994906 0.0038988104 -0.011742289 0.014121691 -0.023530388 0.019947762 0.033322994 0.054868437
-0.0031407233 0.039397944 -0.10237072 0.0006665342 0.00051749614 -0.004882844 -0.005502073 0.010132161
0.023700127 0.04548787 0.0022567806 0.049946856 -0.11063592 0.025519626 -0.015407167 0.0007639654
-0.010323204 0.008143593 0.011503743 0.061162174 -0.0127645675 0.0502645 -0.10786955 0.018154435
-0.027289474 0.0086733475 -0.028038772 0.0003904663 0.026338043 0.063825525 0.0075743767 0.041974206
-0.10670858 0.010742817 -0.049306992 0.035519075 -0.058370147 0.044854883 0.023147034 0.042084802
-0.0059663784 0.03563139 -0.09995746 0.0034132297 -0.0650158 0.06674913 -0.101811066 0.0709124
0.004218129 0.04656094 -0.03899545 0.022134935 -0.04783342 -0.0064871935 -0.030599734 0.1200573
-0.05115527 0.036376685 -0.011239971 0.03690648 -0.06836109 0.052306462 -0.06546574 0.006206714
0.0034171348 0.1644657 -0.021892162 -0.044671614 -0.062785484 0.023013134 0.016596163 0.027190661
-0.09861515 0.0089260265 0.0033040692 0.13246326 -0.045964483 -0.029035404 -0.13359542 0.002899674
0.12803322 0.038693335 -0.12519903 1.7511271e-05 -0.06967499 0.21673158 0.11124283 0.091201216
-0.22978786 -0.0031526012 0.02035005 0.023878764 -0.18470748 -0.03280894 0.0854276 0.19880316
0.14646849 0.11341683 -0.06389578 -0.05362236 -0.2748093 0.010440351 -0.18984972 -0.009041569
-0.051280245 0.11052192 -0.16040324 0.04347443 0.12783448 -0.0593689 0.12766282 0.0016062016
-0.1428682 0.0022420287 -0.1891853 0.17947735 -0.037897285 -0.15581737 0.24170725 -0.09180677
-0.06818856 -0.01249749 0.08129289 -0.010738843 -0.15510407 0.19202287 -0.005219997 -0.21049015
0.21059807 -0.10888638 -0.14629003 -0.008941175 0.22409387 0.016198361 -0.15053488 0.12120475
-0.14073785 0.0037565858 0.16997793 -0.11346112 0.066653825 -0.013778883 0.04393849 0.025116721
0.10386509 0.1488239 0.04895404 0.14788496 0.010250109 -0.08274748 -0.19912764 -0.012454754
-0.13868406 0.039087746 0.07393963 0.17918399 0.17982657 0.19519193 -0.16100694 -0.027389908
-0.25813854 -0.0026475259 -0.15986755 0.045020204 0.04061077 0.16434683 -0.0027515292 -0.03409964
-0.1761689 0.004949173 0.06591001 -0.012508239 -0.16162942 0.020582119 0.037743576 0.20555186
-0.035671316 -0.11294282 -0.08786324 0.07719225 0.008622662 0.028337767 -0.1257018 0.036960375
0.02557016 0.17188306 -0.07759939 -0.039828956 -0.05651696 0.05850974 -0.09945648 0.015867146
-0.08164836 0.0543114 -0.050190885 0.08826908 -0.100581095 0.0289537 -0.014531923 0.05951033
-0.06513022 0.038024023 -0.060673583 0.04125842 -0.050478745 0.034603402 -0.06933077 0.037725847
0.0090926 0.07166563 -0.030602321 0.052417737 -0.04606573 0.038778506 -0.029979281 -0.01519027
-0.050388157 0.030911714 0.020882603 0.056014515 0.009613237 0.023810519 -0.06203201 0.034837846
0.00081066036 -0.009411366 -0.014941929 0.0050882837 0.02566581 0.08025657 -0.0016732602 0.03707076
-0.08298885 0.019945433 -0.0071038487 0.0037939209 -0.026747482 0.024809454 0.0058807894 0.07276369

b f4 [10]
00000000: 6c85 423c 39cd 2a3c dbab 643b d633 3bbc
00000010: 96b4 a1bc 4177 71bd 6f20 4a3c 4673 47bd
00000020: 8412 e13d 52ea 16bc
0.011872631 0.010424905 0.0034892473 -0.011425933 -0.01973943 -0.05895162 0.012336834 -0.048693918
0.1098986 -0.00921114
