classification/models/fashion_MNIST_scratch.pth (torch, 33365 bytes, 2 tensors)

W f4 [784, 10]
000000 ed 99 31 3b 96 65 5d 3a 74 51 c1 b8 1a 79 f7 3b
       0.0027099804 0.00084456184 -9.218129e-05 0.007552278
000010 b5 10 11 3b 27 cb 87 bb c4 8c c7 ba 23 d3 2c 3d
       0.0022135202 -0.0041440907 -0.0015224447 0.042193543
000020 9e 6a 01 bd 4b 6f dc bb 80 ed cc bc 0d 14 85 ba
       -0.03159582 -0.0067271343 -0.025015593 -0.001015307
000030 47 77 ac 3b bb 43 17 3c 08 32 93 3b 8f 46 62 3c
       0.0052632424 0.009232457 0.004492048 0.013810768
000040 49 8e 0b bc 73 b9 95 3c f5 50 06 bd e6 39 59 bc
       -0.00851781 0.018276906 -0.03279205 -0.013258433
000050 9e cb 83 bc 0a f4 a3 ba f3 8e 97 bc 85 45 bb 3b
       -0.016088303 -0.0012508642 -0.01850078 0.0057150745
000060 80 db 82 bb 85 7b d1 3c 17 0c 72 bb e0 5b f0 3c
       -0.0039934516 0.025571594 -0.0036933476 0.029340684
000070 6b dc 30 bd 9c 01 e2 3b 19 db b5 bc 0f 6a c5 bb
       -0.043178957 0.0068971645 -0.0221992 -0.006024606
000080 85 9e 21 bd ea b3 6c 3c fa e1 b2 3c 26 05 61 3c
       -0.039457817 0.014447192 0.02183627 0.013734138
000090 a8 67 81 bb bd 81 41 3c 72 ae 3e bd e8 4c f4 3b
       -0.0039491244 0.011810717 -0.046553083 0.007455457
0000a0 39 a1 ac bc 94 e3 90 3c b6 33 e9 bb 43 1b f8 3b
       -0.02107297 0.017686643 -0.00711676 0.007571609
0000b0 af 0a 0f 3c 0b b7 56 3c 4a ac 07 bc 58 30 29 3b
       0.0087305745 0.013105164 -0.008280823 0.0025816169
0000c0 a0 57 09 bd 10 1a f7 3c 86 d6 d9 bc 32 19 49 3c
       -0.03353083 0.030163795 -0.02659155 0.012274073
0000d0 75 ea 46 bc dc 38 86 3c 8d 4f 79 bc 05 14 b0 3c
       -0.01214086 0.016384535 -0.01521672 0.021493921
0000e0 39 41 d9 39 4e d5 0d 3d 12 95 e1 bc 94 f4 ee bb
       0.0004143806 0.03462725 -0.027536903 -0.0072923396
0000f0 54 91 96 bc b4 bd fe 3c 88 15 fc bc 50 d0 81 3b
       -0.018379845 0.031096317 -0.030771986 0.0039616004
000100 04 26 a7 3b 13 37 ae bb 98 69 75 bc 80 9f e9 3c
       0.0051009674 -0.005316624 -0.014978789 0.028518438
000110 d9 37 36 bd 41 91 87 3c c4 4b 90 bc da 3c 73 3d
       -0.044486854 0.016548755 -0.017614253 0.059384204
000120 48 78 fc bc 30 5a 3b 3c 5f 0b a1 bc 10 a4 bc 3c
       -0.030819073 0.011435077 -0.019658742 0.02302745
000130 c0 8f 73 bc bd 3e 8b 3c bb 23 57 bd 89 0e 01 3c
       -0.014865816 0.01699769 -0.05252431 0.007877001
000140 9e 92 42 bc 69 8b 45 3d 6a 0f 18 bd 8a fe 5c bb
       -0.011875777 0.048228655 -0.037124075 -0.0033721053
000150 10 50 28 bc 19 03 90 3b c8 9e 14 3d 9a f7 ad 3c
       -0.010272995 0.0043949005 0.036284238 0.02123623
000160 5f c8 09 bd e2 e5 01 bc 01 82 9b bc 0f 88 87 3d
       -0.033638354 -0.0079283435 -0.01898289 0.06617748
000170 23 ca 2e 3b c0 23 fb 3b 4e b1 04 bd 06 b7 9c 3c
       0.0026670776 0.007664174 -0.032395653 0.019130241
000180 a1 3f 05 3d fe 29 af 3c d1 59 7c bd bf f5 a8 bb
       0.032531384 0.021382328 -0.061609093 -0.0051562483
000190 a3 6c 8c bb fd 5b d1 3d cb d2 98 3d 1f e0 29 3d
       -0.0042854114 0.102226235 0.074620806 0.041473504
0001a0 79 55 a4 bd c7 3e 4f bc 1e e1 50 bd ba de d0 3c
       -0.08024115 -0.012649245 -0.05099594 0.02549683
0001b0 8c 22 ac bd e5 57 96 3b db c0 32 3c ef be c3 3d
       -0.08405027 0.0045881146 0.010910238 0.09557902
0001c0 f4 f7 bd 3d c7 ec 80 3d 86 5d 53 3a 10 9e 23 bd
       0.09275809 0.06295162 0.00080629473 -0.039945662
0001d0 a8 59 0a be 2d 8a 41 3b 4b ce 95 bd aa 55 94 bc
       -0.13510764 0.0029531822 -0.07314738 -0.018107254
0001e0 76 cf 03 bd e9 d0 ba 3d 70 6f 62 bd da 34 4b bb
       -0.032180272 0.09121878 -0.055282056 -0.0031006844
0001f0 50 75 cd 3d e7 20 71 bd 87 c2 54 3c e0 b1 27 bc
       0.10032141 -0.05886927 0.012985832 -0.01023528
000200 42 ea a5 bd 15 1c fe 3b 2b 98 8d bd 06 e4 b3 3d
       -0.08101322 0.0077548125 -0.06913789 0.087837264
000210 0f b3 30 bd d2 00 8c bd 43 33 1f 3e 69 98 2e bd
       -0.043139514 -0.06836094 0.15546899 -0.04262582
000220 2b de f0 bc 40 a6 8b 3b e5 2e 0a 3b ec cb 32 bc
       -0.029402813 0.004261762 0.002108508 -0.010912877
000230 11 91 90 bd af 31 e0 3d 2e 04 d2 bc d2 39 9d bd
       -0.07058919 0.109469764 -0.025636759 -0.07677044
000240 94 dd 09 3e 18 7a 48 bd de f7 2d bd 32 19 c7 b9
       0.13463432 -0.048944563 -0.042472713 -0.0003797501
000250 3c 47 1b 3d 6f 5a 0c bc 8b b3 a1 bd 3d fe 95 3d
       0.03790973 -0.008566483 -0.07895573 0.07323883
000260 02 26 75 bd 2a 5e 4e bc 4c 40 03 3e c9 3c 6c bd
       -0.0598507 -0.012595693 0.12817496 -0.057675157
000270 04 4c 4c bb 47 c2 48 3c bb 42 98 bc 1c f4 04 bc
       -0.0031173239 0.012253351 -0.018586507 -0.008114841
000280 78 2c e2 3b 7b b1 94 3d d8 15 3f 3d 67 84 32 3d
       0.0069022737 0.07260414 0.04665169 0.0435833
000290 cd a3 45 3d 0d 94 22 bd 4f d2 f7 bd e6 65 04 bc
       0.048251916 -0.039691973 -0.1210066 -0.008080935
0002a0 45 87 77 bd 67 dd 90 bc 7b db 63 3c 93 9d ad 3d
       -0.060431737 -0.017683698 0.013907309 0.084773205
0002b0 90 59 d6 3d 25 14 48 3d 91 a8 93 bd 85 0d e6 bc
       0.104663014 0.048847336 -0.07209886 -0.028082618
0002c0 51 82 04 be 5e c0 62 3c b7 9e 86 bd c5 a6 95 3b
       -0.12940337 0.013839809 -0.06573241 0.0045669996
0002d0 5e d1 22 3b 3f f0 b3 3d 95 ad 91 3b 2a bd 29 39
       0.002484403 0.08786058 0.0044457414 0.00016187565
0002e0 29 c5 bf bd 55 a8 93 3b 09 fd c8 bc 33 53 d7 3a
       -0.09363777 0.0045061507 -0.024534719 0.0016427994
0002f0 5d cf 1d bd 6e 63 fd 3c f3 9c 33 3c 5a 71 97 3d
       -0.038527835 0.0309312 0.010962713 0.07394667
000300 4f 94 b3 bc 35 8e b6 bc 14 3c 00 bd b7 72 9e 3c
       -0.021921305 -0.022284606 -0.031307295 0.01934181
000310 d0 5c 97 3c ab 50 29 3d 31 57 4a bd d9 72 71 3c
       0.018476874 0.041336697 -0.04939956 0.0147368545
000320 93 58 54 bb 15 ad 6a 3d db 35 5b bd 5f fe 16 bc
       -0.0032401427 0.05729397 -0.053518157 -0.00921592
000330 4d c1 b4 bc ac 96 f5 3b 72 19 58 bb 2b 13 48 3c
       -0.02206483 0.007494768 -0.003297415 0.012211601
000340 71 55 09 bd 40 91 9c 3c f4 72 f4 bc 52 d6 e6 3c
       -0.03352875 0.01911223 -0.02983997 0.028178368
000350 1d bc 2f bd cb c9 a7 3c 1e c0 a7 3b c5 32 80 3c
       -0.04290401 0.020481965 0.0051193377 0.015649209
000360 fe d1 9a bb 20 90 ec 3b e2 3b 5b bd 36 1c 61 3b
       -0.00472474 0.0072193295 -0.053523906 0.003434909
000370 51 cc 8f bc a0 b8 db 3b d5 d4 15 bd 37 67 9c 3b
       -0.01755348 0.0067053586 -0.036579926 0.0047730464
000380 01 d7 55 3b 8c 24 db 3c aa 7a 76 bc 2e 53 02 3c
       0.0032629373 0.026750825 -0.015043894 0.007954402
000390 69 52 06 bd a3 78 26 3c f0 c9 06 bb 79 b6 6c 3c
       -0.032793436 0.010160598 -0.0020567141 0.014447802
0003a0 a3 a3 db bc 0d 90 60 3c 07 ab 02 bc a9 a4 58 3d
       -0.026811427 0.013706219 -0.007975346 0.052891407
0003b0 6c 75 c2 bb b1 38 4d 3c 29 6b 0b bd 3c 1f 59 3c
       -0.005934408 0.012525723 -0.034037743 0.013252076
0003c0 2f 6c 9f 3b dd 99 1a 3b ab a9 9c bc ae 1e 60 ba
       0.0048651914 0.0023590245 -0.019123873 -0.00085494935
0003d0 42 08 a4 3a 3c b0 20 3d 12 77 86 bc 3c 73 ba 3c
       0.0012514668 0.03923057 -0.016414199 0.022760026
0003e0 5c 4e be bc 81 2e c8 3b 96 d2 bf bb b4 9d e6 3b
       -0.023230724 0.0061090593 -0.005853961 0.0070378426
0003f0 d6 5d 8e bc e2 5a b7 bb 53 d7 0e bc a7 2f 6a 3c
       -0.017378729 -0.005595551 -0.0087183295 0.014293588

b f4 [10]
000000 f6 fb da 3b d6 b3 56 bb 6f b6 20 3c 06 c0 1f bc
       0.006682868 -0.0032761 0.009809121 -0.009750372
000010 91 65 ce bb 79 6c a3 bc c9 43 05 3c 63 f9 ad bc
       -0.0062987288 -0.019949185 0.008133837 -0.02123708
000020 cc a2 2d 3d c2 2e d5 bb
       0.042391583 -0.006505818
